…
    conv_block = tf.keras.models.Model(inputs, conv3_out_final)
    return conv_block
&lt;/code&gt;&lt;/pre&gt;

&lt;pre&gt;&lt;code class=&#34;language-python&#34;&gt;model = conv_block(16, 3, 8)
model.summary()
&lt;/code&gt;&lt;/pre&gt;

&lt;pre&gt;&lt;code&gt;Model: &amp;quot;model&amp;quot;
_________________________________________________________________
Layer (type)                 Output Shape              Param #   
=================================================================
input_2 (InputLayer)         [(None, 16, 16, 3)]       0         
_________________________________________________________________
lambda (Lambda)              (None, 18, 18, 3)         0         
_________________________________________________________________
conv1 (Conv2D)               (None, 16, 16, 8)         224       
_________________________________________________________________
batch_normalization (BatchNo (None, 16, 16, 8)         32        
_________________________________________________________________
rel1 (LeakyReLU)             (None, 16, 16, 8)         0         
_________________________________________________________________
lambda_1 (Lambda)            (None, 18, 18, 8)         0         
_________________________________________________________________
conv2 (Conv2D)               (None, 16, 16, 8)         584       
_________________________________________________________________
batch_normalization_1 (Batch (None, 16, 16, 8)         32        
_________________________________________________________________
rel2 (LeakyReLU)             (None, 16, 16, 8)         0         
_________________________________________________________________
conv3 (Conv2D)               (None, 16, 16, 8)         72        
_________________________________________________________________
batch_normalization_2 (Batch (None, 16, 16, 8)         32        
_________________________________________________________________
rel3 (LeakyReLU)             (None, 16, 16, 8)         0         
=================================================================
Total params: 976
Trainable params: 928
Non-trainable params: 48
_________________________________________________________________
&lt;/code&gt;&lt;/pre&gt;

&lt;pre&gt;&lt;code class=&#34;language-python&#34;&gt;tf.keras.utils.plot_model(model, show_shapes=True)
&lt;/code&gt;&lt;/pre&gt;

&lt;p&gt;&lt;img src=&#34;./index_29_0.png&#34; alt=&#34;png&#34; /&gt;&lt;/p&gt;
…
&lt;/code&gt;&lt;/pre&gt;

&lt;pre&gt;&lt;code&gt;Model: &amp;quot;model_1&amp;quot;
__________________________________________________________________________________________________
Layer (type)                    Output Shape         Param #     Connected to                     
==================================================================================================
input_3 (InputLayer)            [(None, 128, 128, 32 0                                            
__________________________________________________________________________________________________
up_sampling2d (UpSampling2D)    (None, 256, 256, 32) 0           input_3[0][0]                    
__________________________________________________________________________________________________
input_4 (InputLayer)            [(None, 256, 256, 8) 0                                            
__________________________________________________________________________________________________
batch_normalization_3 (BatchNor (None, 256, 256, 32) 128         up_sampling2d[0][0]              
__________________________________________________________________________________________________
batch_normalization_4 (BatchNor (None, 256, 256, 8)  32          input_4[0][0]                    
__________________________________________________________________________________________________
concatenate (Concatenate)       (None, 256, 256, 40) 0           batch_normalization_3[0][0]      
                                                                 batch_normalization_4[0][0]      
==================================================================================================
Total params: 160
Trainable params: 80
Non-trainable params: 80
__________________________________________________________________________________________________
…
&lt;pre&gt;&lt;code class=&#34;language-python&#34;&gt;generator = generator_network()
&lt;/code&gt;&lt;/pre&gt;

&lt;pre&gt;&lt;code class=&#34;language-python&#34;&gt;generator.summary()
&lt;/code&gt;&lt;/pre&gt;

&lt;pre&gt;&lt;code&gt;Model: &amp;quot;generator&amp;quot;
__________________________________________________________________________________________________
Layer (type)                    Output Shape         Param #     Connected to                     
==================================================================================================
content_input (InputLayer)      [(None, 256, 256, 3) 0                                            
__________________________________________________________________________________________________
noise_6 (InputLayer)            [(None, 8, 8, 3)]    0                                            
__________________________________________________________________________________________________
lambda_2 (Lambda)               (None, 8, 8, 3)      0           content_input[0][0]              
__________________________________________________________________________________________________
noise_5 (InputLayer)            [(None, 16, 16, 3)]  0                                            
__________________________________________________________________________________________________
lambda_3 (Lambda)               (None, 16, 16, 3)    0           content_input[0][0]              
__________________________________________________________________________________________________
concatenate_1 (Concatenate)     (None, 8, 8, 6)      0           noise_6[0][0]                    
                                                                 lambda_2[0][0]                   
__________________________________________________________________________________________________
concatenate_2 (Concatenate)     (None, 16, 16, 6)    0           noise_5[0][0]                    
                                                                 lambda_3[0][0]                   
__________________________________________________________________________________________________
model_2 (Model)                 (None, 8, 8, 8)      1192        concatenate_1[0][0]              
__________________________________________________________________________________________________
model_3 (Model)                 (None, 16, 16, 8)    1192        concatenate_2[0][0]              
__________________________________________________________________________________________________
noise_4 (InputLayer)            [(None, 32, 32, 3)]  0                                            
__________________________________________________________________________________________________
lambda_4 (Lambda)               (None, 32, 32, 3)    0           content_input[0][0]              
__________________________________________________________________________________________________
model_4 (Model)                 (None, 16, 16, 16)   64          model_2[1][0]                    
                                                                 model_3[1][0]                    
__________________________________________________________________________________________________
concatenate_3 (Concatenate)     (None, 32, 32, 6)    0           noise_4[0][0]                    
                                                                 lambda_4[0][0]                   
__________________________________________________________________________________________________
model_5 (Model)                 (None, 16, 16, 16)   5104        model_4[1][0]                    
__________________________________________________________________________________________________
model_6 (Model)                 (None, 32, 32, 8)    1192        concatenate_3[0][0]              
__________________________________________________________________________________________________
noise_3 (InputLayer)            [(None, 64, 64, 3)]  0                                            
__________________________________________________________________________________________________
lambda_5 (Lambda)               (None, 64, 64, 3)    0           content_input[0][0]              
__________________________________________________________________________________________________
model_7 (Model)                 (None, 32, 32, 24)   96          model_5[1][0]                    
                                                                 model_6[1][0]                    
__________________________________________________________________________________________________
concatenate_4 (Concatenate)     (None, 64, 64, 6)    0           noise_3[0][0]                    
                                                                 lambda_5[0][0]                   
__________________________________________________________________________________________________
model_8 (Model)                 (None, 32, 32, 24)   11304       model_7[1][0]                    
__________________________________________________________________________________________________
model_9 (Model)                 (None, 64, 64, 8)    1192        concatenate_4[0][0]              
__________________________________________________________________________________________________
noise_2 (InputLayer)            [(None, 128, 128, 3) 0                                            
__________________________________________________________________________________________________
lambda_6 (Lambda)               (None, 128, 128, 3)  0           content_input[0][0]              
__________________________________________________________________________________________________
model_10 (Model)                (None, 64, 64, 32)   128         model_8[1][0]                    
                                                                 model_9[1][0]                    
__________________________________________________________________________________________________
concatenate_5 (Concatenate)     (None, 128, 128, 6)  0           noise_2[0][0]                    
                                                                 lambda_6[0][0]                   
__________________________________________________________________________________________________
model_11 (Model)                (None, 64, 64, 32)   19936       model_10[1][0]                   
__________________________________________________________________________________________________
model_12 (Model)                (None, 128, 128, 8)  1192        concatenate_5[0][0]              
__________________________________________________________________________________________________
noise_1 (InputLayer)            [(None, 256, 256, 3) 0                                            
__________________________________________________________________________________________________
model_13 (Model)                (None, 128, 128, 40) 160         model_11[1][0]                   
                                                                 model_12[1][0]                   
__________________________________________________________________________________________________
concatenate_6 (Concatenate)     (None, 256, 256, 6)  0           noise_1[0][0]                    
                                                                 content_input[0][0]              
__________________________________________________________________________________________________
model_14 (Model)                (None, 128, 128, 40) 31000       model_13[1][0]                   
__________________________________________________________________________________________________
model_15 (Model)                (None, 256, 256, 8)  1192        concatenate_6[0][0]              
__________________________________________________________________________________________________
model_16 (Model)                (None, 256, 256, 48) 192         model_14[1][0]                   
                                                                 model_15[1][0]                   
__________________________________________________________________________________________________
model_17 (Model)                (None, 256, 256, 3)  1431        model_16[1][0]                   
==================================================================================================
Total params: 76,567
Trainable params: 75,269
Non-trainable params: 1,298
__________________________________________________________________________________________________
&lt;/code&gt;&lt;/pre&gt;

&lt;pre&gt;&lt;code class=&#34;language-python&#34;&gt;tf.keras.utils.plot_model(generator, show_shapes = True)
…
